cricket_model.pth (torch, 123919 bytes, 11 tensors)

fc_stats.0.weight f4 [64, 12]
00000000: 2c1f 853e 64f5 4abc 09f3 04bc 8e81 003d
00000010: 097f a2bc b185 aabb 0a6c 94be cc62 d3bb
00000020: 0f18 20be 2c15 4b3e 7434 86be eff8 8e3d
00000030: 52b3 4f3e 9bbf 37be 1f64 4d3e c1d8 583e
00000040: e29c 88bd 6145 ccbd 475d 973e b4ba f03d
00000050: 4651 2d3c 9658 2f3c 00c4 5e3e 309c 633e
00000060: 4eae 63be abd1 85be d7db 20be 54c2 07be
00000070: 683c 603e 84b7 2fbe a0af 7a3d 4b86 8cbe
00000080: f2d0 0bbe 4e53 1b3e 56e3 833e 83ef 28be
00000090: bd1e e23d 63d9 713e e24d 9abe c973 193e
000000a0: d328 97be c94c 27be 08b1 663d 845d 6b3e
000000b0: 2f7d 273e a40a bfbd a107 d43c 39ac 883d
000000c0: 7060 2a3e 0e88 403e ffe7 b03d 51f6 283e
000000d0: 0d2e 693e b927 623e c5df 6a3d b5ce 9abd
000000e0: 0733 433e f291 f83d 6b50 3abe 7423 923d
000000f0: 65bb 1ebe cf3c 763e 339d aebb fdee d13d
00000100: 5ff8 5b3d 6b45 f73d 5558 a4bd 2ea4 d93d
00000110: 795a 6abe 3243 11be 5606 4a3e 5903 31bc
00000120: 2ead eebc a1de 373d 0d36 5e3e df91 6dbe
00000130: 1db5 6d3e 98c0 303e de3e 793e 6032 593e
00000140: 78ee 54be 8a34 6d3e 34e0 8fbd d3c4 07be
00000150: 450f 143e 7874 943e 3339 473e 73dc db3c
00000160: 72be 403e e8dc 123c 5a31 3a3a 98d3 8738
00000170: cb53 8e3e bee6 60be 1068 8dbd eff9 523e
00000180: 9272 51be 7f80 483e f8a8 ebbd f60c 0d3e
00000190: 014e dabd 689b 76be 9f62 4cbe 891f 3bbd
000001a0: 92c0 0c3e cad8 463e a7c5 81be 0c08 9bbd
000001b0: cbd5 8b3e 923e d3bb 131a f8bd 0c02 b6bd
000001c0: cbb6 29be 3b8b f53d b2b7 453d 69ce 2b3e
000001d0: 8a0a 8ebe 0bc4 603e 43b3 18be 52f8 0cbc
000001e0: d627 693e bf94 c83d 6da1 e03d 013b 653e
000001f0: ef6d efbc c386 9a3e 39f6 c43d 57ae 0abe
00000200: b0c7 f63d 6091 7d3e ec6f 873e 2e00 c8ba
00000210: acfa 07bd 854d e63d b83e 833d 9ace 4c3e
00000220: 3bcd 76be 1697 d33d 41af 8a3e 219f 92bd
00000230: a51a 80be 46ac 4d3e 97b7 10be 51d3 80be
00000240: 8e9c 793d 4051 5f3e 2863 cb3d bb9a 4dbe
00000250: 1eb1 593e 60ec 333e 128a 4c3e cbbb 403b
00000260: a5ad 43be 6fa4 73be 791c 4b3e 42da 2ebd
00000270: a006 b9bd 81d4 863e 3abd 7c3e 9e7f ddbc
00000280: 1ced 6fbd a6c9 01bd 21fc c63c 14fb 89be
00000290: c2b1 753e 4c36 73bd 3f15 f43b 9a02 06be
000002a0: 70dc ddbd 58cb df3d e140 83be c0de 693e
000002b0: 7cd4 4cbe ce10 38be a834 673e c839 463d
000002c0: 8af9 2abe f0b2 a23d a6f9 ffbd 5847 da3d
000002d0: a988 2b3e d81d 1fbe d5cf 8f3d 098f d93c
000002e0: 3bab 2fbe e033 c13d 2b46 6d3d c988 0abd
000002f0: e1eb 6c3e 695a 8fbe 1b3b e4bd 79b8 7d3e
00000300: 0936 13bd 32f2 963d 9da9 823e af2c 6f3e
00000310: bab0 f0bd 2499 cd3d f21b 1c3e ea64 f2bd
00000320: f02a 8ebe 5988 223e 19a4 7dbe 99d8 1ebe
00000330: cd0c 52bd 0327 9fbd 689c cebd 10b9 87bd
00000340: 0fa3 8e3e 19e3 2b3e 6624 8f3e a179 473e
00000350: 7127 66be 7304 3abe 1ba2 b6bc e4f7 5fbe
00000360: 90bd e73c 6a15 093e e714 03bc 8e91 4b3e
00000370: 9047 113e dc95 013e f04b 37be 51e4 063e
00000380: fd85 2dbe 7015 1fbe bd70 5c3e 16e4 4f3b
00000390: 2582 053d f316 7d3e 2018 73be fe89 8bbe
000003a0: d729 4ebe c096 783e d947 113d c777 aabd
000003b0: 8d18 443e effe 533e 7701 8bbc 6675 48be
000003c0: 54c0 20bd dcfd bdbd 39d2 5cbe e14a 93be
000003d0: 54de 52bd 5072 debc 7440 2abe 7c09 6bbe
000003e0: 30e2 a4bd 464f 223e 58db 8b3e 0008 3c39
000003f0: fc93 95bd edb5 2dbe 2a50 793e 66fe 3cbe
0.26000345 -0.012387607 -0.008114585 0.031373553 -0.019835966 -0.0052039255 -0.28988677 -0.0064509865
-0.15634178 0.19832295 -0.26211894 0.06981074 0.20283249 -0.17944185 0.20057724 0.21176435
-0.06670548 -0.099741705 0.29563352 0.11754361 0.010578459 0.010702273 0.21754456 0.2222755
-0.2223446 -0.26136526 -0.15708862 -0.13257724 0.21898043 -0.1715985 0.061202645 -0.27446207
-0.13653925 0.15168497 0.2575938 -0.16497616 0.11041019 0.23618083 -0.30137545 0.14985575
-0.29523334 -0.16337885 0.056321174 0.22984892 0.16356348 -0.093282014 0.025882544 0.06673474
0.1663835 0.188019 0.08638 0.16500212 0.22771473 0.22085465 0.05734231 -0.075589575
0.19062434 0.12137212 -0.1819474 0.071356684 -0.15501173 0.24046634 -0.005328798 0.102506615
0.053703662 0.12073787 -0.080246605 0.10627018 -0.22886075 -0.14185789 0.1972898 -0.010804021
-0.029135313 0.04489005 0.21700306 -0.23200177 0.2321362 0.17260969 0.24340388 0.21210623
-0.20794094 0.23164573 -0.07025185 -0.13258676 0.1445895 0.2899511 0.19455414 0.026838517
0.18822649 0.008963801 0.0007102691 6.476714e-05 0.27798304 -0.21963021 -0.06904614 0.20603155
-0.20453861 0.19580267 -0.115068376 0.13774475 -0.10659409 -0.2408272 -0.19959496 -0.04568437
0.13745335 0.19418636 -0.2534611 -0.07569894 0.2731155 -0.006446668 -0.12114348 -0.08887109
-0.16573636 0.11989447 0.04827089 0.16777958 -0.27742416 0.21949784 -0.14912133 -0.008604126
0.22769102 0.09793996 0.109682895 0.2238579 -0.029227225 0.3018094 0.09617276 -0.13543068
0.12049806 0.24762487 0.26452577 -0.0015258843 -0.033198044 0.112452544 0.06408447 0.20000687
-0.24101727 0.10331552 0.27086833 -0.07159258 -0.25020328 0.20085248 -0.14132534 -0.25161222
0.060940318 0.21808338 0.09931022 -0.20078556 0.21258971 0.17570639 0.19974545 0.0029408808
-0.19109209 -0.23793195 0.1983508 -0.042688616 -0.09034467 0.26334003 0.24681559 -0.027038392
-0.058575734 -0.031686448 0.024290146 -0.2694937 0.2399359 -0.059377953 0.007448822 -0.1308693
-0.10833061 0.109274566 -0.25635436 0.22838879 -0.20002931 -0.1797516 0.2257868 0.04839495
-0.16696754 0.07944286 -0.124987885 0.10658139 0.1675135 -0.15538728 0.07022063 0.026557462
-0.17155163 0.094337225 0.057928246 -0.033821855 0.23136856 -0.27998665 -0.11144086 0.24777402
-0.035940204 0.07370414 0.2552003 0.23356889 -0.11752458 0.10038975 0.15245035 -0.11835654
-0.27767134 0.15872325 -0.2476963 -0.15512313 -0.05128174 -0.07771113 -0.10088426 -0.06627095
0.2785878 0.1678585 0.27957457 0.19479991 -0.22475983 -0.1816576 -0.022294095 -0.21871907
0.028288633 0.13387075 -0.008000589 0.19879743 0.14187455 0.12654823 -0.17900062 0.13173033
-0.16945644 -0.15535522 0.21527381 0.0031721643 0.03259482 0.24715786 -0.23739672 -0.27253717
-0.20133148 0.24276257 0.03546891 -0.08323627 0.1914999 0.20702718 -0.016968472 -0.19576034
-0.03924592 -0.092769355 -0.21564569 -0.28768066 -0.05148156 -0.027154118 -0.1662615 -0.22952837
-0.08050954 0.15850553 0.27315784 0.00017932057 -0.073036164 -0.1696393 0.24346986 -0.1845642

fc_stats.0.bias f4 [64]
00000000: 71ec a53d cfff e83c 009c 7f3a c7ca 48bd
00000010: 2c4d d8bd f244 db3d ab49 1ebe 13a6 a53d
00000020: 9a3b 383e 68f7 01ba 3560 75be 0d23 403e
00000030: 2bd1 133e 5db4 4e3e 8074 27be 2114 283e
00000040: 6122 bfbd a988 c63d 6b91 88be b2a6 9ebd
00000050: ca36 4cbe 0c9c 8a3e f71a 393e d72b ee3d
00000060: ecab 6abe 29d3 2ebd 1fa8 23be 5488 123e
00000070: 29a6 44be 8abe bf3c a141 043e fba0 a5bd
00000080: 69fa 00be 6738 93be eb3c 08bd 35c5 89bd
00000090: 2697 4abe 21a0 913e 98ee 8cbe 2537 68be
000000a0: d328 dc3c 6095 8b3d 768b eabd 48dd c83d
000000b0: 3437 a0bb 9330 80be a486 80be bee5 e1bd
000000c0: ac3e a8bc 673c 1fbe cc6f 39be 12b8 2dbe
000000d0: e3dd 07bd 2e34 8d3e f8f2 ef3d 246d 53bd
000000e0: 6001 72be 8265 65be fc3d 303e 2612 893e
000000f0: 6ebe 4dbe bfd7 153e 362c 043e 150a 163d
0.08101738 0.028442292 0.0009750724 -0.04902151 -0.10561594 0.1070651 -0.1545779 0.08088317
0.17991486 -0.0004957826 -0.23962481 0.18763371 0.1443526 0.2018599 -0.16353035 0.16413929
-0.09332729 0.096940346 -0.26673445 -0.07746638 -0.19942775 0.2707218 0.18076693 0.116294555
-0.22917145 -0.042681847 -0.15982102 0.14309818 -0.1920401 0.023406286 0.1291566 -0.08087345
-0.12595524 -0.2875397 -0.03326122 -0.067270674 -0.19784221 0.2844248 -0.27525783 -0.22677286
0.026874935 0.068156004 -0.11452381 0.09807831 -0.004889393 -0.2503706 -0.25102723 -0.11030148
-0.020537697 -0.15550385 -0.18109053 -0.16964749 -0.033170592 0.27578872 0.117162645 -0.051617756
-0.23633337 -0.22402003 0.17211145 0.2677166 -0.20092174 0.14633082 0.1290749 0.03663071

role_embed.weight f4 [4, 8]
00000000: 3f80 b4bc 13e4 0d3e 858b a53f 1245 093e
00000010: e2f9 91bf 258b b53e 74c0 1a3e f161 20be
00000020: ea8d c43f 9f24 e73e 1b93 f9bd ca3a b6bd
00000030: 0b81 e33f 6dd4 a23d 1428 4abe 3233 06c0
00000040: 9b36 a43e 3f10 c0bf 7e14 41be 265b 20bf
00000050: f216 ebbe 50e5 333f 13cb 633f 8c84 54be
00000060: 4d7d 49bf b788 dabf 3d1d 3f3f 726e d13f
00000070: a0ad b93f 291b 973f d8b4 5b3f c810 7a3e
-0.022033809 0.13856535 1.2933203 0.13405254 -1.1404383 0.3545772 0.15112478 -0.15662362
1.5355809 0.45145127 -0.12186261 -0.08897932 1.7773756 0.07950673 -0.19741851 -2.0968747
0.3207291 -1.5004958 -0.18855473 -0.6263908 -0.45915943 0.7027178 0.8898174 -0.20753688
-0.7870682 -1.7072972 0.7465399 1.636183 1.4506111 1.1805164 0.8582282 0.24420464

fc_combined.0.weight f4 [128, 74]
00000000: 81ef bdbd e4dd 1dbd b0d2 8cbc ac71 bb3a
00000010: 686b d53d ba92 993c c17c ec3d d791 643d
00000020: 7c37 5f3d 3735 a8bb 8ac1 cd3d 432f 913d
00000030: 5bc3 fa3b 1329 a33c 1ce0 e4bd 6e18 9d3d
00000040: 392f 813d 71bb 40bd e5df 923d eb2c 22bd
00000050: 2c1e a4bd 4bf1 82bd 2547 bd3d 3b25 343d
00000060: 0300 8c3c ecad 403d 60bf 703d 596a a2bd
00000070: f084 87bd 0683 ca3d 402d f93d b23e d6bb
00000080: c922 a9bd 129c c4bd 90d2 cbbc 9e96 bc3d
00000090: 2a09 023d dae6 983d b453 63bd 66d4 4c3d
000000a0: 3434 f73d 1b6a 4c3d d141 3fbb 53a3 cfbd
000000b0: cbd5 a1ba 2842 a43d 889d 18bd c130 8f3d
000000c0: 7063 dcbd 37f1 cdbc 36a6 08bd 6ad5 a23d
000000d0: 0fd0 163d abe8 adbd 1007 3dbd 183d 3d3d
000000e0: 79ec 963d b2d5 a13d de85 13bd ce20 893d
000000f0: 0498 bbbc 5b82 f63c e798 98bd 9f03 adbd
00000100: 7ebe 793c b2a4 06bd 77c0 cc3c 9a8c 573d
00000110: 6608 be3d d119 583c d20b b5bd c709 9ebc
00000120: 137a 49bd c61b 41bd 5b07 c5bd bb49 8fbd
00000130: 6c59 ea3d 5d51 97bd dbe5 3fbc 3673 8fbd
00000140: 55e3 90bd 5074 703c 0f8f 8f3d 5d61 a7bc
00000150: 4aa8 a23d 317e 7f3d c8ed 92bd ed50 28bd
00000160: a0b5 a63d ff84 a3bd dab6 933d 4608 52bd
00000170: 5c4f 7f3d 523a a43d 9e61 da3d 2180 d9bd
00000180: 910f 3dbd 7eb3 5fbc ada8 e0bd 0636 bbbc
00000190: 2d05 01bd d9b6 8f3d 06c8 b13d e950 533c
000001a0: 46f5 b53d 229d d7bd f023 dd3d b801 423d
000001b0: 1725 e5bd 1077 473d 208c e53c 1b1f db3d
000001c0: 87a0 bb3b 5964 83bb 54af 51bd 0cdd a1bc
000001d0: fa1d 96bd 90f9 cf3d db67 19bd 0877 de3c
000001e0: 7944 e9bd d348 d0bc 8367 163d c77c 6bbd
000001f0: f061 8e3b e483 823d 0337 643d 387d 2dbc
00000200: 16fb 343c d8d6 323d 8a36 5abd 14ee 273d
00000210: 4cad ce3d 39b5 94bd 40f2 283c ac04 bb3d
00000220: cee1 4cbd 1a2b d9bd a554 853b 4b6a 3a3c
00000230: d152 923d a8f0 77bd 4e76 54bd 02cb 663c
00000240: 6901 d0bd 81ec d53d decb 8abd 0a6c bdbd
00000250: fa0f b3bd 1d5a 9d3d ca2f bfbd 653e 01bd
00000260: 678d 2ebb a816 f43c cea5 2c3c 8654 d03d
00000270: acaa c43c 031e d5bd bd76 0abb 4c2d ad3d
00000280: 189c 19bc a785 743d 4060 df3d 1bae a63d
00000290: c6e0 553d 2369 e53c 2a0d 9dbd a78e a6bd
000002a0: 80cc 623c 49a6 8dbd f75c 5dbd 6479 cebd
000002b0: baa7 703d 4725 ba3d 5384 5a3d b62e 153b
000002c0: 223c 49bd 8fc6 c43d 0cf8 833d ccfb 793d
000002d0: 5279 c9bb 187d 2f3c 15ca 8fbd b190 0ebc
000002e0: 8887 79bd e868 363d 8165 3bbc 8a28 e8bb
000002f0: bca9 8a3d ee0a dcbc 8638 59bd a06f 40bd
00000300: 8172 af3a 7432 553d 3020 b8bc e365 8d3c
00000310: 0378 e93d 07de bdbd 06bb 943d 74ba 7cbd
00000320: b739 543d 7869 623d 8cea 223d 50d0 e13d
00000330: b8ad 98bd e689 bf3d 1837 e93d 2218 573d
00000340: c116 7bbd a98a dabd a943 b5bd 210d cbbd
00000350: 3146 933d 9b21 afbd 13df 5ebd cb66 cdbd
00000360: 30df 5ebd 643d a3bd f493 f43c cf29 2e3c
00000370: 7d3a 113d 4d19 9cbd fd39 a9bc 9436 a03d
00000380: 0c4b 703d 195a 993c a923 71bb fe22 8ebd
00000390: 893c 3f3d 9711 e83d cf05 af3d da4c 783d
000003a0: f9b9 693d 08ab b73d d589 54bd e011 40bd
000003b0: a089 a6bc 8e28 663d 76c5 77bc df6c d7bc
000003c0: 4ebe 7bbd 5a7b 703d 10bc 5abd 93bc d13d
000003d0: 06bf da3d 7503 d8bd 87ca d83c 2cee bc3d
000003e0: 8385 b8bd bd38 cfbd 0ba9 75bd 2f55 913d
000003f0: ed0d 22bd c4c3 a53d 3ec3 00bd 801f 44bd
-0.09274197 -0.03854169 -0.017190307 0.0014300845 0.10420877 0.018746722 0.115472324 0.055803146
0.054496273 -0.005133297 0.1004668 0.070890926 0.0076526827 0.019917047 -0.11175558 0.07670675
0.06307835 -0.047053758 0.07171611 -0.03959362 -0.08013567 -0.06393679 0.09242085 0.04398082
0.01708985 0.047040865 0.05877626 -0.079304405 -0.06617153 0.09888272 0.12166834 -0.0065382356
-0.08258588 -0.096000805 -0.024880677 0.092084154 0.03174702 0.074659064 -0.055499747 0.050007246
0.12070504 0.049905878 -0.0029183517 -0.101385735 -0.001234704 0.08020431 -0.03725961 0.06991721
-0.10761154 -0.025139434 -0.033361636 0.07950862 0.036819514 -0.084916435 -0.046149313 0.04620084
0.07369322 0.07902087 -0.036016338 0.0669571 -0.022899635 0.030091455 -0.07451039 -0.08447956
0.015243171 -0.03287191 0.024994118 0.052624322 0.092789456 0.013189749 -0.08840145 -0.019291772
-0.049188685 -0.047145627 -0.096205436 -0.06996485 0.11442837 -0.07388566 -0.011712517 -0.070043966
-0.0707461 0.014676169 0.07009708 -0.020432169 0.07942255 0.062376205 -0.071742594 -0.0410928
0.08140111 -0.07984351 0.072126105 -0.05127742 0.062331542 0.08018936 0.1066315 -0.10620142
-0.046157423 -0.013653634 -0.10969672 -0.022852909 -0.031499077 0.07017297 0.086807296 0.012897708
0.08884673 -0.105280176 0.1079787 0.04736492 -0.11188715 0.04869753 0.028020918 0.10699292
0.0057259235 -0.004009765 -0.051192597 -0.019758724 -0.07329936 0.10155022 -0.03745256 0.027156368
-0.11390013 -0.02542535 0.03671981 -0.057492044 0.004345171 0.063728124 0.055716526 -0.0105889365
0.011046192 0.043661922 -0.05327467 0.040998533 0.100916475 -0.07261128 0.010311663 0.091317505
-0.05002003 -0.10603924 0.0040689283 0.011377881 0.07144702 -0.060532242 -0.051870637 0.014086487
-0.10156519 0.104455 -0.06777166 -0.092491224 -0.08743282 0.07683203 -0.09335287 -0.031553645
-0.0026634575 0.02979596 0.010537578 0.101723716 0.024007164 -0.10406115 -0.0021127902 0.08455905
-0.009375595 0.059697773 0.1090703 0.08138677 0.052216314 0.028004235 -0.076685265 -0.081326775
0.013842702 -0.06916482 -0.054043736 -0.10081747 0.058753707 0.09089141 0.05334885 0.0022763438
-0.049129613 0.096081845 0.064437956 0.061031148 -0.0061484957 0.010710977 -0.07020966 -0.008701489
-0.06092027 0.04453364 -0.011437775 -0.0070849108 0.067706555 -0.02686068 -0.05303242 -0.046981454
0.0013385565 0.05205007 -0.022476286 0.017260497 0.113998435 -0.09270864 0.072622344 -0.061701253
0.051812854 0.055276364 0.039774463 0.110260606 -0.07455009 0.09352474 0.113874614 0.05251325
-0.061300997 -0.106709786 -0.08850796 -0.099146135 0.07191122 -0.085513316 -0.05441196 -0.10029372
-0.054412067 -0.07970694 0.029855706 0.010630085 0.03545617 -0.07622013 -0.020657534 0.0782291
0.05866532 0.01871972 -0.0036794937 -0.06940268 0.04668859 0.1133148 0.0854603 0.060620166
0.057062123 0.089681685 -0.05188926 -0.046892047 -0.020329297 0.05619102 -0.015122762 -0.026297031
-0.061460786 0.058711387 -0.053402007 0.10241046 0.10680966 -0.105475344 0.02646376 0.09225115
-0.0900984 -0.10118244 -0.059975665 0.070963256 -0.039564062 0.0809398 -0.031436197 -0.047881603

fc_combined.0.bias f4 [128]
00000000: d2ff dd3b a565 19bb fa90 b7bb 1663 c4bd
00000010: bf79 933d 622a d83d 9fbb e8bd d255 e2bc
00000020: ecb4 15bd bab0 54bd 14f6 c03d 9bda d53b
00000030: 66d4 913c fee7 9fbb 8c11 283d 2482 55bd
00000040: dbca 953d cb39 65bc aba4 e4bd a73d 3abd
00000050: cd3c c3bc d977 a6bd 5a84 98bd dc11 32bd
00000060: e6d5 4cbd d8f6 8bbd d611 da3d 1f90 51bd
00000070: cbc3 623d a569 5ebd 0a73 b5bd b881 b13d
00000080: 799e e33b 1d2b de3d c1dd 5a3d 2ebf 113d
00000090: c611 b9bb fa7d 7d3d c1eb 4a3d 8b8f 9f3d
000000a0: 5ad4 de3d 0060 b93d 9013 263c af3f 173d
000000b0: 492a d0bd 65f5 b5bd 5b80 c33d b4a9 233d
000000c0: 397e 04bd bcfa 833c 4d3d cd3c abe5 feba
000000d0: 9c14 ebbd a0bd 6bbc 3b01 d5bd b754 ae3d
000000e0: 6e56 df3d 906e 1fbd 31c2 313c 100a 7dbc
000000f0: c1af 603d 2889 183d 14b1 71bd 6f01 66bd
00000100: 87be 94bd 573d 56bd 3af5 b4bd 1161 44bd
00000110: b854 423d 5615 9dbd e672 bcbd 78ef 3fbd
00000120: 474d d0bc 9c09 c83d 1ce1 7abd c9a5 303d
00000130: 6407 40bd d431 d23d 660f 843d 0c12 42bd
00000140: 4a12 5fbd f418 493d 7cce aa3d d893 73bd
00000150: da4e 9c3d 7e0f 903d 6b2e d33c bdff 58bd
00000160: 6efb ae3d 47fd 7ebd 8bd6 d8bd 955e d23d
00000170: 17b3 183d a032 3a3b 64dd 9e3d 4313 20bd
00000180: 84f4 073d 5438 82bd baab 80bd cc44 abbd
00000190: 2f5f bcbd e163 ae3d 1364 cf3d 56e4 8b3c
000001a0: 060a 6fbd 7f93 b6bd 503c c53c d313 cfbd
000001b0: 83e7 cb3d 9547 883d 8c26 aa3d 2dcc b6bd
000001c0: fb0a 163d 4d8c 9cbd b2be b1bc 32e8 d83c
000001d0: 00d9 cdbb 3d89 afbd bb53 b6bd ec6d d23d
000001e0: a53e 79bd 54a9 e9bc d81a 7cbd b8b2 e73d
000001f0: 31eb c9bd a400 723c 0779 8b3d dfac 803d
0.006774881 -0.0023406532 -0.0056019993 -0.09589212 0.072009556 0.10554959 -0.11363911 -0.027628813
-0.036549494 -0.051926352 0.09421936 0.006526304 0.017801475 -0.0048799505 0.04103236 -0.052126065
0.07314082 -0.01399083 -0.111642204 -0.045468953 -0.023832703 -0.08128328 -0.07447119 -0.043474063
-0.050008677 -0.06834191 0.10647933 -0.051162835 0.055362504 -0.05429997 -0.088598326 0.0866732
0.0069463816 0.10848067 0.053434137 0.035582714 -0.0056478707 0.06188772 0.04954124 0.077910505
0.108803466 0.09051514 0.0101365 0.036925968 -0.10164315 -0.08884696 0.09545966 0.039956763
-0.032346938 0.01611077 0.025053645 -0.0019447108 -0.1147854 -0.014388472 -0.10400625 0.08512252
0.10905157 -0.0389238 0.0108495215 -0.015444294 0.054855112 0.037240177 -0.059006765 -0.05615371
-0.07262903 -0.052304592 -0.08835836 -0.047944132 0.047444075 -0.07670085 -0.09201603 -0.046859235
-0.025427474 0.09767458 -0.061249837 0.043126855 -0.04688205 0.1026341 0.064482495 -0.047380492
-0.0544608 0.049096063 0.08340165 -0.059467167 0.07632227 0.07034205 0.02577897 -0.052978266
0.0854405 -0.062253263 -0.10587796 0.10271946 0.03728017 0.0028411523 0.07757071 -0.03908087
0.033192173 -0.063584 -0.06282754 -0.08362731 -0.09197842 0.08515144 0.101265095 0.017076652
-0.05835917 -0.089148514 0.02407661 -0.10111203 0.09956267 0.06654278 0.083081335 -0.08925662
0.036631566 -0.07643948 -0.021697376 0.026477907 -0.006281972 -0.08571098 -0.08902689 0.10274872
-0.060850758 -0.028523125 -0.061549038 0.11313385 -0.09859312 0.014770661 0.068101935 0.062829725

fc_combined.2.weight f4 [128, 128]
00000000: 4189 b1bc f049 863d a3d7 1abd 697a 2e3b
00000010: 44a8 4b3d a863 2a3d 17d6 a4bd ad59 bebd
00000020: 41ca 28bd e01a e83b 2847 f7bc bccc 9abd
00000030: 85ed b2bc dc57 49bd 9ebb 313d 1799 8dbd
00000040: 13bb 78bd ef28 41bd bc07 19bc d4b3 143d
00000050: 064d ba3c 3195 61bd eb98 22bc 3729 e3bc
00000060: 31db 74bd 12b4 98bd f8aa 4dbd 497e 183d
00000070: 9cf5 08b9 4692 aabd 63d7 7fbd 81a7 83bd
00000080: 41a0 c63c 9b49 8fbd b9b9 cd3c ae45 b03a
00000090: e502 163d fd35 963d 2cd3 0ebd 58cd e4bc
000000a0: 671e d93c 4020 7dbd 215d 97bd d62c 613d
000000b0: 14fc 9d3d f0ed 1abd ae43 2bbd 73f0 b3bd
000000c0: 7e35 abbc 5d2d 9a3d d2eb d63c 2efc a53d
000000d0: b6ea 653d d810 283c 2489 a6bd 379d 16bd
000000e0: 1551 44bd 9e8c 0b3d a160 b83d 93b7 b1bd
000000f0: c5ae 663d 15eb a0bd 3ec3 84bb b513 01bd
00000100: 16e2 a7bd 1891 d63c 96d1 b6bd 181c 7abc
00000110: 04c6 213d 38e5 4dbc bd1f 56bd 3bc1 a23d
00000120: 4d96 36bc e3f3 5ebd 078a a73c 2e60 b4bd
00000130: 7fab 4abc 0752 99bc ff81 18bd a054 763c
00000140: e833 bd3c e779 a63d 63dc 953d 00b8 0dbb
00000150: cca6 ae3c 0a92 c7bd a115 a43d 125a 55bd
00000160: 820c 55bd e5a0 b13d a133 50bd a939 1cbd
00000170: e1ed bd3b d734 9b3d 488d 46bd 288c 193d
00000180: b3f9 a33d b013 923b f43f a73c 0e5b 9a3d
00000190: 4865 4cbd 79b2 79bd 877b 773d 3e9e 54bd
000001a0: fba8 2fbc f790 17bd 4888 c83c ac0d 98bd
000001b0: 22de b4bd 19b7 583d 7e68 47bd 12ba caba
000001c0: 9228 9fbc 01ca c6bd c702 c2bd 8fae 183d
000001d0: 65d6 a23d 3409 fb3c fe48 e6bc 9e23 d0ba
000001e0: fc29 cdbc 254c 68bd eb02 adbd 580a 87bc
000001f0: d468 a7bc b93f 3fbd 2677 9c3d 7446 d0bd
00000200: 6460 b5bb 0c42 b8bb f77d 85bd 3993 8b3d
00000210: 7ee9 4b3d 2973 cebc 1417 61bd 28aa 913c
00000220: 7459 6fbd 2bcf 8f3d 300f 85bc cc46 c8bc
00000230: 0077 8c3d 03a0 c5bd 79b1 72bd 2cd7 1d3d
00000240: 6673 07bd 5974 c7bc 45b1 43bd 35b9 af3d
00000250: c3fa 71bc f1a6 b4bc c070 603b b24a 823d
00000260: fdb3 16bd 277e 60bd 7abf 953d bfac 4c3d
00000270: c51d d73c 88ac 1a3c 036a 6fbc e6d6 4ebd
00000280: f12c 68bd d2bb 8c3c 0e46 dcbc 5c45 763c
00000290: bf43 47bd 2c25 6f3d b649 943d 747a 163d
000002a0: 2f1e ad3b 7b1f 173d 8ef9 d8bc 1a34 913d
000002b0: 41d1 8b3d 8b5d 4cbd 3216 26bd 58ca 43bc
000002c0: 99f3 c4bd 418a 4bbc 846b 2d3d b9c0 5dbd
000002d0: c059 93bb 97f3 913d 8e6b 2dbd 5c53 b1bd
000002e0: c8c1 783d 8604 41bd 4584 823c f551 57bd
000002f0: df11 883d 907f 8a3d f21f 7f3d 588a 5bbc
00000300: c43e 88bd 1b14 a2bd 9623 a63d 2970 44bd
00000310: c2a8 963d 0342 09bd 3e4c 1f3d 8d1b 9bbd
00000320: 5cec cc3a 42a8 5d3d 874e 443d bb72 613d
00000330: 4b32 cbbd 1bb0 47bd 61ac 09bd 6603 703d
00000340: 80c6 b2bb 97cc 87bd b1ce aebc bc09 bf3c
00000350: f964 353d 543a 873d 5ac6 95bd b011 903d
00000360: 0838 663d e3d7 803d 93d6 bdbc ca75 82bd
00000370: e224 66bb 90ca 4b3c 732c d3bc ff64 9bbd
00000380: a842 0dbd a356 863d 36fc 4f3d a626 873d
00000390: 5212 abbd 4dfc 1e3c 375d c9bc 9419 cfbc
000003a0: 5655 cebc f4a9 abbd 9860 4ebc 7f62 75bd
000003b0: 5142 413d 055f 8cbd f9bb 85bd 17b2 b7bc
000003c0: dd5b ddbc 1713 dd3c e0d1 61bd 3a8b 0a3d
000003d0: dc58 bcbc ed8e 13bd cdae 2abd 09c1 403d
000003e0: 36c4 4a3d 6230 bdbd 2805 92bd 60d1 543c
000003f0: 4dbe a73d 6000 93bd 0993 5b3d c87c ccbc
-0.021671893 0.06557071 -0.037803303 0.0026623255 0.049721017 0.041598946 -0.08048647 -0.09294448
-0.04120851 0.007083282 -0.030185297 -0.07558581 -0.021841774 -0.049156055 0.043391816 -0.06913965
-0.060725283 -0.047158178 -0.009340223 0.03630431 0.022741806 -0.05507392 -0.009924154 -0.027729614
-0.05977935 -0.07456221 -0.050211877 0.03722981 -0.00013061467 -0.08328681 -0.06246127 -0.06428433
0.024246337 -0.06996461 0.025112974 0.00134485 0.036623854 0.07334516 -0.034869358 -0.027929947
0.026503755 -0.061798334 -0.0739081 0.0549744 0.07714096 -0.03782457 -0.04181259 -0.087860964
-0.02089953 0.075281836 0.026235495 0.0810474 0.05613204 0.010257922 -0.08131626 -0.036771026
-0.04792889 0.03406965 0.090028055 -0.08677592 0.056319017 -0.07857338 -0.004051595 -0.031512935
-0.08197419 0.026192233 -0.08926694 -0.015265487 0.039495483 -0.012566857 -0.05227636 0.07947012
-0.011144233 -0.054431807 0.020451559 -0.08807407 -0.012369989 -0.018715871 -0.03723335 0.015034825
0.02309604 0.0812872 0.07317426 -0.0021624565 0.02131977 -0.097446516 0.08011938 -0.05208785
-0.05201388 0.08673266 -0.050830487 -0.038140927 0.0057961796 0.07578438 -0.04847458 0.03748718
0.08006611 0.0044579133 0.020416237 0.075368986 -0.049901277 -0.06096122 0.06042054 -0.051908724
-0.01072144 -0.037003484 0.024479046 -0.07424483 -0.08831431 0.05290899 -0.048683636 -0.001546683
-0.019428525 -0.09706498 -0.09473186 0.037275847 0.07951049 0.030644037 -0.028110977 -0.0015879755
-0.025044434 -0.056713242 -0.08447822 -0.016484424 -0.020435728 -0.04669163 0.07639913 -0.10169688
-0.0055351723 -0.005623108 -0.065181665 0.0681519 0.049783222 -0.025201397 -0.05495365 0.017781332
-0.05843492 0.07021936 -0.016242594 -0.024447821 0.06858635 -0.096496604 -0.059251282 0.038535282
-0.033069037 -0.024347471 -0.04777648 0.08580247 -0.014769259 -0.02205226 0.0034246892 0.06361903
-0.036792744 -0.05480781 0.07311912 0.04996943 0.026259312 0.009440549 -0.0146126775 -0.050497912
-0.056683484 0.017179403 -0.026888873 0.015031185 -0.048648592 0.05838506 0.07240622 0.036737874
0.005283139 0.036895256 -0.026486184 0.07090016 0.068270214 -0.049893897 -0.04054851 -0.011950098
-0.09616775 -0.012423099 0.042338863 -0.054138873 -0.004496783 0.07126539 -0.0423389 -0.08658478
0.06073168 -0.047123455 0.015932212 -0.052568395 0.06644034 0.06762612 0.062286325 -0.013399683
-0.066525966 -0.07913991 0.08112256 -0.047958527 0.07356407 -0.03351022 0.03889107 -0.07573614
0.0015634405 0.05411554 0.047926452 0.055041056 -0.09921702 -0.04875193 -0.03361166 0.05859699
-0.005455792 -0.06630819 -0.021338793 0.023320071 0.04428575 0.06602922 -0.07313223 0.070346236
0.05620578 0.06291177 -0.023173606 -0.06370123 -0.0035117199 0.012438431 -0.025778031 -0.07587623
-0.034487396 0.065594934 0.050777636 0.065991685 -0.08353104 0.009703708 -0.024580581 -0.025280751
-0.025187176 -0.08382025 -0.012596272 -0.059908386 0.047182385 -0.06854061 -0.065299936 -0.022423787
-0.027021343 0.026986642 -0.055131793 0.033824183 -0.02299159 -0.036024977 -0.04167061 0.047059093
0.049503528 -0.09237744 -0.0712989 0.012989372 0.08190594 -0.07177806 0.05360702 -0.024961844

fc_combined.2.bias f4 [128]
00000000: 94ec 503c bc32 c1bd 887a 363d a0fe 65bd
00000010: 9516 b73d b963 173d dfa4 963d a95a c33d
00000020: 0515 08bc 4afd 613d b8d3 bf3d ff3b dc3a
00000030: 9c6b 74bd e03d 9dbd 4575 47bd 009f 83bd
00000040: 79d5 6d3d 1fe8 2a3c 523c 3ebc 8d31 473d
00000050: 1179 523d c1cf 313d 472b 283d 27e0 623d
00000060: b3a5 d3bc 3633 53bd 548e a8bd 16c7 983d
00000070: 6e2b 353d 9212 7abd bb34 03bc 31c6 afbc
00000080: 5722 67ba 5db3 1bbc a60d 093d d42f 923a
00000090: bee5 8dbd 36ea 923d 1f2e 40bd d347 da3c
000000a0: 3cbd 25bd 40bf 92bd 9872 763d 9fe1 44bd
000000b0: 8da9 babb c10a 5c3c 1b7f 893c e003 b7bc
000000c0: c2ac 2abd 9574 b03b 678f 453d 76df a33d
000000d0: 1cad a73a 8e4f 4c3d a2fe cb3c 0798 75bd
000000e0: d387 f5bc d280 923c d033 fa3c 59f7 bb3d
000000f0: 546e a0bd c081 ab3c 7c77 9e3d e4e5 81bd
00000100: aa08 8ebc ae83 083d bdc2 27bd d85e bc3d
00000110: e6f8 ba3d 0507 34bd 37fb 683c d393 53bd
00000120: 2597 493d 840f b43d 189a ca3d 5dc7 d63c
00000130: 8b7e 0dbc 2aa3 94bd 560d eebc e2d7 afbd
00000140: 2c3a 66bd a965 223d 729a a33d e883 b6bd
00000150: 34cf a6bd 6bda b63c b6ac 71bb 8f72 97bd
00000160: 6d30 733c c0ce 6a3b 132b 513d 91f4 b73d
00000170: 68d7 c43d 40d8 a4bd 174c 2b3d e62d dbbb
00000180: 5ea6 96bd 84be 493c 6756 a93c 2a6f aabd
00000190: 90f8 22bb 7a0b 91bd 5b4f 643d 4ada 14bd
000001a0: f15c 54bd b7ad ef3c b811 aebd ecc9 46bd
000001b0: f7f8 1f3c ef06 edbc 0d21 9c3d cbd6 8f3b
000001c0: 7fe1 a03d a967 6bbd f520 653d b253 9bbd
000001d0: f018 893d 1500 513d eaaf 883d 939b 113d
000001e0: c0d6 c5bc 9c37 b2bc 20e0 8abd da08 91bb
000001f0: 09dd 98bd f15e 9fbd 2124 82b9 82e8 743c
0.012751717 -0.09433505 0.04455045 -0.056151032 0.08939854 0.036960337 0.073556654 0.095387764
-0.008305793 0.055173196 0.09366554 0.0016802548 -0.059672937 -0.07677817 -0.04869582 -0.06426811
0.05806491 0.010431319 -0.011611061 0.04863124 0.05138499 0.04341102 0.041056897 0.05538955
-0.025835847 -0.05156251 -0.08230272 0.07459848 0.04423087 -0.061052866 -0.008008177 -0.02145681
-0.0008817068 -0.009503213 0.03346028 0.001115317 -0.069285855 0.071735784 -0.046918985 0.026645577
-0.04046367 -0.07165384 0.06016788 -0.04806673 -0.0056964816 0.013430298 0.016784241 -0.022340715
-0.04166866 0.0053849914 0.048232462 0.08001606 0.001279268 0.049880557 0.024901692 -0.059959438
-0.029971993 0.017883692 0.030542284 0.09178037 -0.078335434 0.020935893 0.077376336 -0.06342676
-0.017338116 0.033328705 -0.0409572 0.091977775 0.09129505 -0.043952007 0.014220051 -0.051654648
0.04921641 0.08792022 0.09892672 0.02621811 -0.008636127 -0.072576836 -0.029059093 -0.08586098
-0.05620782 0.039647732 0.079884425 -0.08911878 -0.081449896 0.022320947 -0.0036876625 -0.07394897
0.014843089 0.00358288 0.05106647 0.08982194 0.09611398 -0.08049059 0.04182061 -0.006688821
-0.07355951 0.012313489 0.020671083 -0.08321984 -0.0024867393 -0.07082267 0.05573974 -0.03634099
-0.05184645 0.029257638 -0.08499473 -0.04853241 0.009763948 -0.02893397 0.076234914 0.004389619
0.0785551 -0.057471905 0.055939633 -0.07584323 0.066942096 0.05102547 0.06674178 0.035548758
-0.024150252 -0.021755032 -0.0678103 -0.004426104 -0.07464034 -0.077817805 -0.0002482245 0.014948012

head_player.weight f4 [11, 128]
00000000: 36a6 163d a02c 39bc fdf7 78bc d34a 8ebd
00000010: 1e35 5dbd 5d63 b9bd 6b67 a13c 7218 9b3d
00000020: 8532 733c 22e1 9d3d 79e5 2f3d 1cd5 a0bd
00000030: 558a 8dbd 6dc0 f8bc 2b67 4dbd 4634 853d
00000040: e8b4 833d e120 533c 829f 4c3c cca8 ca3d
00000050: 4507 8ebd b856 803d 6ba2 b43d fb86 323d
00000060: 43ed 2a3d 4e52 43bd d275 25bd 2753 aabd
00000070: 65dc c23c 786d febc 26e0 0d3c 85a6 babd
00000080: cba6 a63d d5f7 88bd c522 a2bc abc8 b93d
00000090: 2ea8 7dbd 8b80 49bd 1737 063c c07e 75bd
000000a0: 001b ec3b e2d8 b93d 1c3f 9a3d 9817 a0bd
000000b0: 4857 163c 8515 31bd 1f93 323d 2b47 50bd
000000c0: 232e f73c e4d9 6a3d 3105 b5bc f878 9abc
000000d0: f1bd b73c ba3f 993d b861 3c3c a736 8a3b
000000e0: 1599 ab3d 3619 8b3c 9eb5 0d3a 1e71 883b
000000f0: 95b4 36bd 05ae 1fbd 7968 3b3d bda9 833c
00000100: 1141 57bd 880c 5b3d 52a2 943d 59df b0bb
00000110: a077 8a3d ba65 763d beeb 47bd b9aa c93c
00000120: 10e7 a8bd 79fd 8fbd 4add 9fbd 4020 6e3d
00000130: 1ff6 cbbd 383d a8bc 552b 983d a300 2f3d
00000140: ce97 02bd f79a 7a3d e1df 8b3d 443e a83d
00000150: 2708 a3bd 62dd 623d 1801 80bc cdfa 95bc
00000160: 4260 c6bc 1a0c 423d 8022 9a3d c93d cabc
00000170: e41d babd 4745 7bbd 54fb 3e3d 9e0b b9bd
00000180: 6461 333d a1db a13c e59c 87bd 12f2 3a3c
00000190: dbf3 22bd 02ac aa3d a83d 3f3d adf4 8a3d
000001a0: 0164 8d3a d839 b8bd f86a 8d3d 1a4a 9e3d
000001b0: d67a b63c ba0f a1bd 170b 993d 4fec 423d
000001c0: 4bd3 b3bd 71e4 2bbd 9b61 4d3c 6ed7 923d
000001d0: 02a9 7dbd 0a63 563d 1e7e 50bd 0945 76bd
000001e0: 7bf9 c0bc 507e 29bd b85a c8bc 79d0 bcbc
000001f0: 27ac bdbd 6a76 7fbd 1dcd 4e3d a2ec 7fbd
00000200: 77b0 333d afdf b03c 364f 16bd 3e7d 183d
00000210: 15b6 833d 456c 3e3c 1e17 113d a446 90bd
00000220: 6ccb 8e3d 1ed0 45bb 9ead 953d 7400 963d
00000230: 8af9 7d3d 914d cabd 8a95 acbc c636 083d
00000240: 5a39 1dbd 3b06 86bd 22b5 0abd 7fab 1abd
00000250: 68e8 03bd eb0d babc 089d 2abd dba9 bfbc
00000260: a024 62bc 01d1 ce3c ed5a 293d d597 4f3c
00000270: 03e0 e7bc a2b1 3dbd 888d 82bd af60 993c
00000280: db2d 883c 4fdc b93d 2329 c13c 870a 793d
00000290: 4c40 c1bc 07e5 763d 6d5b f5bb 966e 423d
000002a0: 95b1 9b3d 631a 7b3d 6ad5 5f3d 15c8 d73c
000002b0: d41d 35bc 6c32 533c a752 abbd 2d05 52bd
000002c0: 2ce6 573d 3cc7 67bd e45e 973d 180d 313d
000002d0: b90b 7bbd 2b9b 5f3c d65a b0bd 5b6e c43c
000002e0: 6eb2 a4bd 214a 3d3d 0c89 a33d a18c 8bbd
000002f0: 72ff f3bc 42bf 86bd b77a 943d bd72 8abc
00000300: 3789 1ebd 15d5 a1bd 8687 80bd 2f6e 72bc
00000310: 543a 52bc 73d3 acbd 0965 61bd 142f 9ebd
00000320: 3951 b83d c15f 3e3d 1bc6 e7bc 230a 92bd
00000330: dbf7 08bd d599 c33d 1190 3abc 8fa3 82bd
00000340: 8149 b7bd 3f8b 87bd 0728 d2bb d68f 4e3d
00000350: 8f47 a0bd 3556 bf3d 2eae 78bc c30d 1dbd
00000360: 1969 f4bb 5589 b2bb 098a 043c 7744 263d
00000370: 655a 953d d088 f43c 28e8 813c 61de b43d
00000380: ef62 75bd bbc5 6d3d cbec 9cbd 354f 0bbd
00000390: 15c7 b5bc 6d6a 633d d15c 933d 4d5a 1fbd
000003a0: 6b52 2abd bbc8 933d caa7 bcbb 9fbc a13d
000003b0: b5de 94bd f4cb cb3b 4f18 9cbd 1c2c 07bd
000003c0: 312e a33d f8ae a6bd 2ce8 213c 24d2 bbbd
000003d0: 047d 0abd fb24 813d 3e1b f9bc da73 3cbd
000003e0: 9398 d03c 039f aebd 86b0 733d 9652 c73d
000003f0: 1333 983d ba68 a1bd 4cd3 fcbb d90d 383d
0.036779605 -0.011302143 -0.015195844 -0.06947865 -0.054005735 -0.09052155 0.019702634 0.07573022
0.014843588 0.07708956 0.04294345 -0.078531474 -0.0691115 -0.030365193 -0.050147217 0.06504111
0.064309895 0.012886257 0.0124892015 0.09895477 -0.0693498 0.0626654 0.08820041 0.04358576
0.041730177 -0.047685914 -0.040395565 -0.08316641 0.023786733 -0.031058058 0.008659398 -0.09113792
0.08137282 -0.06687895 -0.01979197 0.090714775 -0.061927967 -0.049194854 0.008191845 -0.05993533
0.007205367 0.0907457 0.075315684 -0.07817 0.009176083 -0.043233413 0.043597337 -0.05084912
0.030173367 0.057336703 -0.022097202 -0.01885651 0.022429438 0.07482858 0.011497907 0.004217941
0.083788075 0.016979795 0.0005405786 0.0041638752 -0.04460581 -0.038984317 0.04575393 0.016072148
-0.052552287 0.053478748 0.07257523 -0.005397719 0.06761098 0.060155608 -0.048808806 0.02461754
-0.08247197 -0.07030768 -0.078058794 0.058136225 -0.09959053 -0.020537004 0.0743014 0.042725217
-0.031883053 0.061182942 0.06829811 0.08215001 -0.07960539 0.05538691 -0.015625522 -0.018308068
-0.024215821 0.047374822 0.075261116 -0.024687665 -0.090877324 -0.061345365 0.046626404 -0.09035419
0.04379405 0.019758048 -0.06621722 0.011410253 -0.03978334 0.08333589 0.04668966 0.067849495
0.001078725 -0.08995408 0.06905168 0.077289775 0.02227537 -0.07864328 0.07472818 0.047588643
-0.08780535 -0.041965906 0.012535478 0.07169996 -0.061928757 0.052340545 -0.050901525 -0.06012443
-0.023556462 -0.041380227 -0.02445732 -0.023048626 -0.09261351 -0.062368788 0.05048858 -0.06248153
0.043869462 0.021591036 -0.036696635 0.037228815 0.06431214 0.011622493 0.035422437 -0.07044724
0.069723934 -0.0030183862 0.073085055 0.07324305 0.062005557 -0.09878076 -0.0210674 0.03325536
-0.038384773 -0.06544157 -0.033864148 -0.037761208 -0.03220406 -0.022711715 -0.041653663 -0.023396423
-0.013802677 0.025246145 0.04134648 0.012670477 -0.02830506 -0.046311982 -0.06374651 0.01872286
0.016623428 0.09075224 0.023579186 0.060801055 -0.02359023 0.06027701 -0.0074877054 0.047468744
0.076022305 0.06130446 0.054646887 0.026340524 -0.011054475 0.0128904395 -0.08365374 -0.051274467
0.052709743 -0.05658649 0.07391146 0.043225378 -0.061290476 0.013647835 -0.086110756 0.023978403
-0.08041845 0.046213273 0.07985124 -0.06813932 -0.029784892 -0.06579448 0.072499685 -0.016900415
-0.038705077 -0.0790197 -0.06275849 -0.014796778 -0.012831289 -0.08438768 -0.055027995 -0.07723823
0.08999867 0.046478037 -0.028292706 -0.0713084 -0.0334395 0.095508255 -0.011386887 -0.063788526
-0.08949567 -0.06618356 -0.006413463 0.05043014 -0.07826149 0.093426146 -0.015178246 -0.038343202
-0.0074588177 -0.0054485 0.008089551 0.040592637 0.07292632 0.029850394 0.015857771 0.08831478
-0.059908804 0.0580499 -0.07662352 -0.034011085 -0.022189656 0.055521417 0.07195438 -0.038904477
-0.041582506 0.07216021 -0.0057573067 0.07897305 -0.072690405 0.0062193815 -0.07621824 -0.03300105
0.07967795 -0.081388414 0.009882014 -0.091709405 -0.03381063 0.063058816 -0.030408498 -0.046008922
0.025463378 -0.08526423 0.059494518 0.09732549 0.07431617 -0.07881303 -0.0077156182 0.04493508

head_player.bias f4 [11]
00000000: 71e7 493d 1b58 c8bb 8834 bcbc 1e65 5e3d
00000010: da74 f5bb 0e11 e53c 5a39 a1bb 050c 5c3d
00000020: e063 d33c 1eb4 99bd b75a a63d
0.049292985 -0.0061140186 -0.022974268 0.05429565 -0.0074907364 0.027962234 -0.004920167 0.0537224
0.02580446 -0.07505058 0.08122771

head_stat.weight f4 [12, 128]
00000000: 7847 1ebd e421 af3d 144b 4ebd 521e aebd
00000010: 368b 80bd 8e09 b5bd 315c 40bd 6130 8abd
00000020: 66ce 8ebd 1b2d 25bd 9399 b6bd 10be 05bd
00000030: 40d9 953c 4298 a03d e34a 3cbc 48f6 7f3d
00000040: d208 b53d 04d1 773d fc6c 633a 106f a6bd
00000050: 5990 c73c decf 3fbd 56c5 813d 2ab3 0b3d
00000060: c11f 22bc d421 3fbc e89c 903d 5edb a03c
00000070: 0cd0 423d 841d 813c f977 1ebd 051f 023d
00000080: 82a7 f33c 428b 92bd 6fc8 8b3b d6cb 7c3c
00000090: 6049 4ebd 2858 f13c 6ef0 05bc 2afc 083d
000000a0: 0a8e 3fbd bf06 c93d ce83 a8bd eaf7 4a3d
000000b0: 6b2a 3e3d 0eaf 8b3d 81ce 533d a550 833c
000000c0: 072a 95bc e6ce 833d cd94 b6bd c040 bebd
000000d0: 33c4 963d 6a8c 0abd 657c 213d 424b be3d
000000e0: f864 713d 5304 fa3b c9a5 473d eb51 93bd
000000f0: 6476 4cbd bd89 81bd ac60 5ebd 5510 a63d
00000100: f2e3 863d 7e78 dc3c aabb cf3c e8b5 9abd
00000110: 0c76 92bd 1b98 01bd 03b1 2cbd 0060 8bbd
00000120: fa46 e4bb aecc f8bc 6c78 9cbc 119b 34bc
00000130: ad62 b0bd 6eed 37bd 9a62 6dbd 545d 243c
00000140: 7582 cb3d 9b8f 45bd 8ca0 8fbd c43e 86bd
00000150: 2e83 0cbd ae86 82bd 2f82 4b3d 8174 05bd
00000160: 6ffc 003d dc2f b3bd 837b 8abd 7792 613d
00000170: 8abd ddbc 9207 b53d 76d1 253d bb94 9abd
00000180: 20f0 4c3b a9ca d8bc b858 ac3d aaf9 0fbd
00000190: 6642 a13d c730 ddbc 581d 573d 19b2 77bd
000001a0: 900b ccbc 837b 0b3d 0c13 9cbc dbfd 3d3d
000001b0: 5b37 b3bc 4f86 f53b f218 f63b de23 293d
000001c0: bbbc cd3c 7a42 79bd 2459 96bd f1a4 91bd
000001d0: edde afbc ef36 94bd e551 213d ec9e d93c
000001e0: 8318 3bbd 9594 94ba ca1a b9bc bb73 843d
000001f0: 0c78 813d 50e5 a6bc 7453 02bd 8185 ca3c
00000200: af2e 073d ba55 373c 35fe 60bd 8905 0fbd
00000210: 9c5e 4d3d 9010 413c 75d0 23bd 02b4 a4bd
00000220: c2df be3c 8e72 7dbd 2fbd 943d 075e c83c
00000230: 9c59 0cbc ff8f 77bc d30b 073d 64db e53c
00000240: c4a1 babb 57b4 59bd cf90 3fbd b208 883d
00000250: 6d4c 44bd 3597 b23c 6b34 45bd 2e47 5bbd
00000260: 3957 dfbc 001c ab3d 4636 8c3d e0b5 023d
00000270: c98d 2d3d 6dc1 873d 3c3e b53d a002 8abd
00000280: 67fc 7bbb 3d6c b9bd 95b3 8bbd bea0 5f3c
00000290: a901 89bd bd2f b2bd 9981 713d c62e 62bd
000002a0: 8b33 903d 3f62 36bd f9dd e7bc 28f7 afbc
000002b0: d103 cb3c 08fb 473c bad7 493d 0fd0 24bd
000002c0: 7718 5fbd 9719 94bd 3d5c 75bd 65f9 6a3d
000002d0: f740 47bc 761a 903d 24b5 b2bc 9645 163d
000002e0: d06b 2ebc 6963 8c3c 4bdb 003d 3cdc 4e3d
000002f0: 1a98 d13b 733c b0bd 53e9 5b3d 1559 993d
00000300: 4fd7 88bb a19e 9dbb f2f3 a1bc 3b6d 60bd
00000310: b692 0f3c 4de0 373b f0d9 5e3d a9ba a33c
00000320: 9d00 60bd e652 923c c461 8e3d d4d1 6d3d
00000330: 7d5a c2bb 613f c2bd 9416 88bd 2882 d8bb
00000340: 8762 613d bf7f d13c 1cd4 953d a6d6 14bd
00000350: b67f b3bd 4983 95bd a08a aaba 7ef4 41bc
00000360: 3bc0 1abc 4491 533c 3e33 913d 5aa3 87bd
00000370: 877e 66bd f268 453d 9302 7dbd 83f9 86bd
00000380: 3493 163c 9b1b 00bd 345c babd e012 9cbd
00000390: c16f 81bd 9a76 c2bb 4b1d c0bd 5247 30bc
000003a0: ca5b 49bd 9e8e 14bd f1ea b0bc 266e b2bd
000003b0: 0315 79b9 4872 953d 85ca a4bd 1d43 b5bd
000003c0: 794f 77bb 7d13 023d 8eee a2bd f815 9abd
000003d0: 0279 a2bd 89d9 7abd 4023 75bc 0a5e ca3c
000003e0: 48af 92bd f2d1 2f3d da91 8b3d bef0 6f3c
000003f0: 41e7 0f3b 86a6 263c a8e8 2cbd 27f3 9f3d
-0.038642377 0.08551386 -0.05036457 -0.08501877 -0.062765524 -0.08839713 -0.04696292 -0.06747509
-0.06972961 -0.04032622 -0.08916011 -0.03265196 0.01829207 0.07841541 -0.011492464 0.06249073
0.08839573 0.060502067 0.0008675603 -0.08126652 0.024360823 -0.046829097 0.06336467 0.03410641
-0.009895266 -0.01166578 0.070611775 0.019635852 0.04756169 0.015761144 -0.038688634 0.031767864
0.02974296 -0.071554676 0.004265837 0.015429458 -0.050362945 0.029460981 -0.008174999 0.033443607
-0.04676632 0.0981574 -0.08228265 0.049552836 0.04642717 0.068204984 0.05171061 0.016029665
-0.018208517 0.06435947 -0.089151 -0.09289694 0.07361641 -0.033825316 0.039425272 0.09291698
0.058934182 0.00762991 0.04874209 -0.07193359 -0.049917594 -0.063250996 -0.054291412 0.08108584
0.06586446 0.026912924 0.02535804 -0.07554227 -0.07151422 -0.0316392 -0.042161 -0.0680542
-0.006966469 -0.030371036 -0.01910039 -0.011023299 -0.08612571 -0.044904165 -0.057955362 0.010032017
0.09936992 -0.048232656 -0.07013044 -0.0655494 -0.03430479 -0.06373344 0.0496847 -0.03258181
0.03149074 -0.08749363 -0.06761839 0.05507132 -0.027067918 0.088393345 0.04048296 -0.07547899
0.0031271055 -0.026463823 0.08415359 -0.035150208 0.078739926 -0.027000798 0.05251822 -0.06047258
-0.024907857 0.034053337 -0.019052051 0.046384674 -0.021876981 0.0074928175 0.007510298 0.04129397
0.025114408 -0.060854413 -0.07341221 -0.07111538 -0.021468604 -0.0723704 0.03938474 0.026565038
-0.045677673 -0.0011335785 -0.022595782 0.06467386 0.06321725 -0.020373017 -0.03181787 0.024721863
0.033003505 0.011189872 -0.05492993 -0.034917388 0.050139055 0.011783734 -0.039993722 -0.08042146
0.023300055 -0.061876826 0.072626464 0.024458898 -0.008566286 -0.015110015 0.03297026 0.028058715
-0.0056955535 -0.0531505 -0.04676896 0.066422835 -0.047924448 0.021800617 -0.048145693 -0.05353468
-0.02726327 0.0835495 0.06846289 0.03191173 0.042371545 0.0662869 0.08849761 -0.06738782
-0.0038450004 -0.09053848 -0.06821362 0.013649164 -0.0668977 -0.087005116 0.058961485 -0.055220388
0.07041081 -0.04452729 -0.028304087 -0.021480158 0.024782093 0.012205847 0.049278 -0.040237483
-0.05446669 -0.072314434 -0.05990242 0.057366747 -0.012161485 0.07036297 -0.02181489 0.036687456
-0.010645822 0.017137246 0.031459134 0.050503 0.0063963057 -0.0860528 0.053689312 0.07487694
-0.0041760574 -0.00481017 -0.019769643 -0.05479167 0.008763006 0.0028057278 0.05440706 0.019986467
-0.054688085 0.017861795 0.06952241 0.058061436 -0.005931197 -0.09484745 -0.066449314 -0.0066073127
0.055025604 0.02557361 0.07315847 -0.036337517 -0.08764593 -0.07300431 -0.0013011284 -0.011838077
-0.009445245 0.012913052 0.07089852 -0.06622954 -0.05627301 0.048195787 -0.061770033 -0.06590559
0.009190369 -0.031276327 -0.090996176 -0.076207876 -0.063201435 -0.0059345486 -0.09380587 -0.010759192
-0.049159802 -0.036268823 -0.021596404 -0.087124154 -0.00023754318 0.07297188 -0.0804644 -0.088506915
-0.0037736578 0.031756867 -0.07955657 -0.075237215 -0.07933237 -0.061242614 -0.014962018 0.024703044
-0.071623385 0.04292483 0.06814928 0.0146448 0.0021957906 0.010171538 -0.042214066 0.078100495

head_stat.bias f4 [12]
00000000: 71ee fdbb c590 00bd 309e 693a 9551 023d
00000010: 722e 5e3b 7ab5 b13d 0a66 a93d 9dae 933d
00000020: 84a3 f03c 4d63 f73c b49a 83bd 968e 40bd
-0.0077493717 -0.031388063 0.00089118164 0.031816084 0.0033902195 0.08677192 0.082714155 0.07211039
0.029374845 0.030198717 -0.06425992 -0.04701098
